Saving files to: onePop-selectiveSweep-10Samp-20Int/
Mode: train
Loading previously-condensed data...
Loaded. Shape of data: (10, 11, 15, 1)
Splitting Partition
Creating Model
Model: "TimeSweeperRCNN"
_________________________________________________________________
Layer (type)                 Output Shape              Param #   
=================================================================
input_1 (InputLayer)         [(None, 21, 11, 15, 1)]   0         
_________________________________________________________________
time_distributed (TimeDistri (None, 21, 9, 13, 64)     640       
_________________________________________________________________
time_distributed_1 (TimeDist (None, 21, 3, 5, 64)      0         
_________________________________________________________________
time_distributed_2 (TimeDist (None, 21, 3, 5, 64)      256       
_________________________________________________________________
time_distributed_3 (TimeDist (None, 21, 1, 3, 128)     73856     
_________________________________________________________________
time_distributed_4 (TimeDist (None, 21, 1, 1, 128)     0         
_________________________________________________________________
time_distributed_5 (TimeDist (None, 21, 1, 1, 128)     512       
_________________________________________________________________
time_distributed_8 (TimeDist (None, 21, 1, 1, 128)     512       
_________________________________________________________________
time_distributed_9 (TimeDist (None, 21, 128)           0         
_________________________________________________________________
lstm (LSTM)                  (None, 64)                49408     
_________________________________________________________________
dense (Dense)                (None, 256)               16640     
_________________________________________________________________
dropout (Dropout)            (None, 256)               0         
_________________________________________________________________
dense_1 (Dense)              (None, 128)               32896     
_________________________________________________________________
dropout_1 (Dropout)          (None, 128)               0         
_________________________________________________________________
dense_2 (Dense)              (None, 3)                 387       
=================================================================
Total params: 175,107
Trainable params: 174,467
Non-trainable params: 640
_________________________________________________________________
None
Training set has 193640 examples
Validation set has 41494 examples
Test set has 41495 examples
Epoch 1/100
   1/6051 [..............................] - ETA: 0s - loss: 1.1243 - acc
…
